sinusoid_maml_fo.pt (torch, 9755 bytes, 5 tensors)

weight f4 [40, 1]
-0.29669476 0.45991132 0.544148 0.49834365 -0.32225493 0.65568906 -0.03481424 -0.66468084
0.5834605 -0.28342858 0.76808864 -0.12092183 -0.10979128 -0.6322992 0.29132143 0.13831021
-0.10586791 0.63932115 -0.18796837 0.5715182 -0.31050262 -0.55370134 0.146674 0.04547095
-0.5171844 -0.026952425 -0.51614296 0.151817 0.015552988 -0.45936394 0.5139728 -0.35946018
0.4097487 0.18600139 -0.10739652 0.15277296 0.52170825 0.43836838 -0.2676188 0.11820584
00000000: 60e8 97be 7f79 eb3e 494d 0b3f e626 ff3e
00000010: 99fe a4be 3ddb 273f 6099 0ebd 8628 2abf
00000020: ab5d 153f 8d1d 91be 75a1 443f dda5 f7bd
00000030: 40da e0bd 5cde 21bf 1528 953e 31a1 0d3e
00000040: 46d1 d8bd 8daa 233f c87a 40be 044f 123f
00000050: 33fa 9ebe 5fbf 0dbf b631 163e bf3f 3a3d
00000060: 3266 04bf 55cb dcbc f221 04bf ea75 1b3e
00000070: f6d1 7e3c c031 ebbe b993 033f 2a0b b8be
00000080: 95ca d13e 2677 3e3e b5f2 dbbd 8470 1c3e
00000090: ac8e 053f d271 e03e 5505 89be e715 f23d

bias f4 [40]
-0.014796923 -1.6822811 -1.545709 -2.0454426 -0.44465572 -0.771219 -0.5361866 -1.9211187
-0.8315693 -1.0780735 -1.6484832 0.36535785 -0.7419063 -1.6052563 -0.87615496 -0.24426444
0.19146991 -1.0350753 -0.94208276 -0.46134475 -0.28203827 -1.7702696 0.3553632 0.567813
-0.65416205 0.27508616 -0.8771323 0.42242166 0.42155632 -0.9812986 -1.4907833 -0.1805896
0.13903804 -0.035076153 0.30945128 0.05189514 -1.7185069 -0.1963136 -0.9710657 0.03830347
00000000: cb6e 72bc fd54 d7bf cbd9 c5bf 88e8 02c0
00000010: eaa9 e3be 9c6e 45bf 8643 09bf 38e7 f5bf
00000020: bae1 54bf 50fe 89bf 7f01 d3bf 2f10 bb3e
00000030: 92ed 3dbf 0a79 cdbf b14b 60bf 7520 7abe
00000040: b010 443e 597d 84bf 562c 71bf 6135 ecbe
00000050: 5267 90be 3298 e2bf 2af2 b53e 315c 113f
00000060: 2a77 27bf 18d8 8c3e be8b 60bf a747 d83e
00000070: 3bd6 d73e 6336 7bbf fdd1 bebf 7bec 38be
00000080: fd5f 0e3e 03ac 0fbd 6670 9e3e 0090 543d
00000090: 09f8 dbbf 6f06 49be c397 78bf 19e4 1c3d

weight f4 [40, 40]
-0.039018027 0.15672164 -0.12238634 0.008311272 -0.10372437 -0.003113255 0.01056464 0.052541927
-0.00079768896 0.097175166 0.04316801 -0.0068935454 -0.031938642 -0.15002517 0.032461584 0.01999253
-0.12579256 -0.108943835 0.0843187 -0.098954886 -0.15695116 -0.09054389 -0.013777494 -0.09585333
-0.15054086 -0.11561683 -0.12770271 -0.09313051 -0.036770158 -0.03802584 -0.009663701 -0.04582209
0.10751684 0.04170516 -0.053865463 0.062238187 0.116599694 0.04852155 0.12529303 -0.08655361
0.06823081 -0.60701525 -0.44395337 -1.9833528 -0.15405373 0.41660917 -0.04417059 -0.79037815
0.3111594 -0.5004068 -0.10597132 0.25681284 0.03853506 -0.9301839 -0.0651518 0.0634878
0.64173764 0.21068424 -0.10490397 0.39999953 -0.14631753 -0.5821232 -0.20118934 -0.84021795
-0.4883022 -0.08627797 -0.84824854 -0.11888841 0.2016218 -0.89447707 -0.39991394 -0.19813071
-0.36631572 0.103324905 0.6850239 0.15212989 -1.1848276 0.18459396 -0.28587732 0.36851254
0.06638634 -1.149409 -1.3343147 -1.5927101 -0.49944165 -0.3587162 -0.04356327 -1.2403926
-0.37036034 -0.97294736 -0.46499893 0.15087387 0.052457944 -0.9947934 -0.3732051 -1.2523993
-0.28203705 -0.22552362 -0.12626557 -0.27554098 -0.2900286 -0.9792468 0.32458052 0.6475013
-0.5841377 1.2915915 -0.62167037 0.28913188 -1.9390032 -0.5385031 -1.1709529 -0.107732244
0.33603868 0.109892786 0.11203629 0.21431613 -1.8477459 0.063192494 -1.8304592 0.17586778
0.09778206 -0.5633914 -0.6077309 -1.7371138 0.042275656 0.21949765 -0.11337921 -0.7118376
0.25125867 -0.63843775 -0.12296076 -0.3745229 -0.07186264 -0.22819026 -0.03320005 0.24667658
-0.7794693 0.16175868 0.11861478 0.12246305 -0.121191 -0.5730209 0.09696348 -0.83725286
-0.013834123 0.17548332 0.13485177 -0.18245861 -0.07281341 -0.041099057 -0.937922 0.09659947
0.043842737 0.087040134 -0.15948309 0.73006934 -1.0412594 0.37310782 -0.26247376 0.89600927
0.89815927 -0.7651277 -1.8283738 -2.361367 0.5395982 0.56390435 -0.010995984 -0.045673914
0.05927428 -1.2768242 -0.7384886 -0.70343214 -0.15125254 0.41757646 -0.5260348 -0.3147009
-0.17870373 -0.24784821 -0.02997078 0.67002547 0.3727883 -0.98238546 0.447472 -0.17088403
0.39634702 -0.10883387 0.5941086 -0.13650572 -0.7203476 0.424285 -2.110859 0.46641272
0.32154682 0.48912138 -0.6366902 0.95754516 -2.0090144 0.7835988 -0.44816467 0.8850514
0.30495948 -0.14507215 -0.49557206 -0.096917324 0.00994717 -0.2737275 0.012284249 -0.37924466
-0.30041575 -0.49601445 -0.7193515 -0.65468514 0.14834209 -0.23097166 -0.6094114 0.05533045
0.074770935 -0.31460086 -0.11607456 -0.17132874 0.31186908 -0.7646995 -0.36719352 0.8087363
0.25388062 -0.7775957 0.18590006 0.37029797 -0.22923093 -0.048566666 -0.3852473 0.23108742
-0.08867166 0.3159862 -0.47021303 0.66852546 0.032822285 0.06273149 -0.5474806 0.6855208
0.27474213 -0.951004 -0.81063294 -1.6056225 0.07589296 0.2961431 0.09386484 0.20823285
0.28622198 0.21148281 -0.19922788 -1.5704083 -0.14448442 0.1029293 -0.20239876 -0.5930433
00000000: 5ed1 1fbd a37b 203e b0a5 fabd 002c 083c
00000010: 716d d4bd c007 4cbb 5017 2d3c 3436 573d
00000020: 001c 51ba c603 c73d f0d0 303d 40e3 e1bb
00000030: 18d2 02bd 33a0 19be 70f6 043d 60c7 a33c
00000040: c4cf 00be f21d dfbd 48af ac3d dca8 cabd
00000050: ceb7 20be 136f b9bd 00bb 61bc c04e c4bd
00000060: 6227 1abe 84c8 ecbd 80c4 02be 35bb bebd
00000070: 4e9c 16bd fcc0 1bbd 8054 1ebc f2af 3bbd
00000080: ca31 dc3d 08d3 2a3d 08a2 5cbd 78ed 7e3d
00000090: d2cb ee3d 88be 463d d14c 003e 0543 b1bd
000000a0: 98bc 8b3d 5a65 1bbf db4d e3be 81de fdbf
000000b0: 43c0 1dbe cc4d d53e 38ec 34bd 3956 4abf
000000c0: 4950 9f3e a91a 00bf 7e07 d9bd f97c 833e
000000d0: f0d6 1d3d 8820 6ebf 4f6e 85bd e405 823d
000000e0: eb48 243f 9cbd 573e e5d7 d6bd bdcc cc3e
000000f0: 43d4 15be 0706 15bf 9404 4ebe 8618 57bf
00000100: bf02 fabe 81b2 b0bd d126 59bf c47b f3bd
00000110: f275 4e3e 73fc 64bf 85c1 ccbe c7e2 4abe
00000120: bc8d bbbe 029c d33d ba5d 2f3f f0c7 1b3e
00000130: 6ea8 97bf 3306 3d3e 835e 92be adad bc3e
00000140: 90f5 873d d61f 93bf d3ca aabf eddd cbbf
00000150: d1b6 ffbe a6a9 b7be 666f 32bd 2fc5 9ebf
00000160: df9f bdbe 1413 79bf 5714 eebe ae7e 1a3e
00000170: 24de 563d c8aa 7ebf bd14 bfbe 9f4e a0bf
00000180: 2967 90be aaef 66be c34b 01be b513 8dbe
00000190: a17e 94be ebaf 7abf 6b2f a63e a5c2 253f
000001a0: 0c8a 15bf df52 a53f ca25 1fbf 1809 943e
000001b0: 4231 f8bf 57db 09bf c9e1 95bf b9a2 dcbd
000001c0: 430d ac3e 780f e13d 4873 e53d b075 5b3e
000001d0: f082 ecbf 116b 813d 7d4c eabf af16 343e
000001e0: f641 c83d 6b3a 10bf 4194 1bbf bf59 debf
000001f0: 3d29 2d3d fec3 603e 5c33 e8bd fd3a 36bf
00000200: faa4 803e a870 23bf dad2 fbbd 77c1 bfbe
00000210: b82c 93bd b5aa 69be c7fc 07bd c998 7c3e
00000220: 4d8b 47bf 11a4 253e 4eec f23d e8cd fa3d
00000230: fd32 f8bd 7fb1 12bf ca94 c63d 3456 56bf
00000240: 84a8 62bc e6b1 333e 9516 0a3e 6ed6 3abe
00000250: 321f 95bd 7c57 28bd a81b 70bf f1d5 c53d
00000260: 7194 333d 1942 b23d 894f 23be d3e5 3a3f
00000270: fd47 85bf fd07 bf3e f662 86be dd60 653f
00000280: c4ed 653f 69df 43bf 2708 eabf a320 17c0
00000290: 1c23 0a3f 095c 103f 8028 34bc 9214 3bbd
000002a0: 96c9 723d fa6e a3bf 970d 3dbf 2114 34bf
000002b0: f2e1 1abe 95cc d53e 37aa 06bf 7a20 a1be
000002c0: 1cfe 36be eccb 7dbe 4885 f5bc ca86 2b3f
000002d0: 1cde be3e 9d7d 7bbf 0d1b e53e 39fc 2ebe
000002e0: ffed ca3e 4be4 debd 8017 183f 28c8 0bbe
000002f0: b368 38bf e23b d93e 5018 07c0 a6cd ee3e
00000300: c9a1 a43e 1e6e fa3e 21fe 22bf ae21 753f
00000310: b193 00c0 ee99 483f d775 e5be bb92 623f
00000320: a623 9c3e cb8d 14be 9fbb fdbe 977c c6bd
00000330: 74f9 223c 0326 8cbe e043 493c 5b2c c2be
00000340: 18d0 99be 9bf5 fdbe 6b27 38bf 7299 27bf
00000350: fde6 173e d683 6cbe 6302 1cbf 2fa2 623d
00000360: 8121 993d 5d13 a1be 80b8 edbd cd70 2fbe
00000370: 4ead 9f3e 59c3 43bf ca00 bcbe 5809 4f3f
00000380: a4fc 813e 8310 47bf 965c 3e3e b297 bd3e
00000390: 83bb 6abe d7ed 46bd 223f c5be 2ea2 6c3e
000003a0: 7d99 b5bd f1c8 a13e c3bf f0be 7c24 2b3f
000003b0: a970 063d 5e79 803d b027 0cbf 4b7e 2f3f
000003c0: 00ab 8c3e 0075 73bf a485 4fbf 0a85 cdbf
000003d0: c56d 9b3d 12a0 973e 363c c03d fe3a 553e
000003e0: b08b 923e f38e 583e 6502 4cbe 2403 c9bf
000003f0: b9f3 13be 99cc d23d 9f41 4fbe b0d1 17bf

bias f4 [40]
-0.075213574 0.0859751 0.66555935 -0.15696406 0.020864896 -0.0006023985 0.2540403 -0.13615666
0.28455758 -0.19374518 -0.09498566 0.47951552 -0.17208967 -0.73050195 0.482241 -0.12784378
-0.11291847 0.43510002 0.491082 0.16773283 0.6341195 -0.25470686 -0.3846965 -1.2737938
-1.0686158 0.14568087 -0.26238322 -0.8269428 -0.48639125 -0.76097345 0.027895223 -0.1554919
-0.7063759 -0.22451866 0.19159767 0.103807285 -0.44901082 -0.06233105 -0.3678809 -0.07473784
00000000: 9309 9abd b713 b03d 1962 2a3f 30bb 20be
00000010: dcec aa3c 47ea 1dba 9211 823e a76c 0bbe
00000020: 88b1 913e 2365 46be d787 c2bd 0f83 f53e
00000030: 4638 30be 2d02 3bbf 4be8 f63e 7be9 02be
00000040: cc41 e7bd 6ec5 de3e 1a6f fb3e 28c2 2b3e
00000050: a855 223f f068 82be f1f6 c4be ad0b a3bf
00000060: 67c8 88bf 5e2d 153e 1857 86be 86b2 53bf
00000070: 4608 f9be 28cf 42bf 8684 e43c 4539 1fbe
00000080: 0dd5 34bf 38e8 65be 2e32 443e ea98 d43d
00000090: bfe4 e5be d84e 7fbd e35a bcbe 2710 99bd

weight f4 [1, 40]
-0.036955893 0.40800834 -0.7999188 0.21618755 0.080805205 0.62293935 -0.6249698 0.10822277
0.20715563 0.2797099 -0.18051338 0.6084821 -0.038480926 -0.5513658 -0.8369388 -2.621179
0.0182123 -0.7299598 -0.49748257 1.6863469 0.49883223 -0.270832 0.21581489 0.47942072
0.42955646 2.2168424 0.2458001 0.37848946 0.41827506 0.28849837 -0.48608974 0.061936498
0.7481448 -0.3868161 1.0723523 0.27994084 -0.94835114 -0.7465341 0.42625648 -0.39918283
00000000: 105f 17bd 78e6 d03e 7ac7 4cbf 4560 5d3e
00000010: 337d a53d f478 1f3f 05fe 1fbf e6a3 dd3d
00000020: 9b20 543e 2336 8f3e 80d8 38be 7cc5 1b3f
00000030: 2d9e 1dbd 4f26 0dbf 9f41 56bf 66c1 27c0
00000040: f631 953c a5de 3abf 09b6 febe 37da d73f
00000050: f066 ff3e 7eaa 8abe 94fe 5c3e a276 f53e
00000060: d3ee db3e bfe0 0d40 05b3 7b3e 5fc9 c13e
00000070: 2628 d63e 0fb6 933e c1e0 f8be 20b1 7d3d
00000080: 6b86 3f3f c30c c6be d742 893f 6854 8f3e
00000090: 24c7 72bf dc1c 3fbf 4a3e da3e b161 ccbe
